…
    batch_size: 32
  }
}
layer {
  name: "low3"
  type: "HDF5Data"
  top: "low3"
  include {
    phase: TRAIN
  }
  hdf5_data_param {
    source: "AESR/hdf5/tr_txt/low3_1.txt"
    batch_size: 32
  }
}
layer {
  name: "low4"
  type: "HDF5Data"
  top: "low4"
  include {
    phase: TRAIN
  }
  hdf5_data_param {
    source: "AESR/hdf5/tr_txt/low4_1.txt"
    batch_size: 32
  }
}
layer {
  name: "label"
  type: "HDF5Data"
  top: "label"
  include {
    phase: TRAIN
  }
  hdf5_data_param {
    source: "AESR/hdf5/tr_txt/label_1.txt"
    batch_size: 32
  }
}
layer {
  name: "conv21"
  type: "Convolution"
  bottom: "low2"
  top: "conv21"
  param {
    name: "conv_W1"
    lr_mult: 0.3
  }
  param {
    name: "conv_b1"
    lr_mult: 0.1
    decay_mult: 0
  }
  convolution_param {
    num_output: 16
    pad: 1
    kernel_size: 3
    stride: 1
    weight_filler {
      type: "msra"
    }
    bias_filler {
      type: "constant"
      value: 0
    }
    engine: CUDNN
  }
}
layer {
  name: "relu21"
  type: "ReLU"
  bottom: "conv21"
  top: "conv21"
  relu_param {
    negative_slope: 0.1
    engine: CUDNN
  }
}
layer {
  name: "conv22"
  type: "Convolution"
  bottom: "conv21"
  top: "conv22"
  param {
    name: "conv_W2"
    lr_mult: 0.3
  }
  param {
    name: "conv_b2"
    lr_mult: 0.1
    decay_mult: 0
  }
  convolution_param {
    num_output: 16
    pad: 1
    kernel_size: 3
    stride: 1
    weight_filler {
      type: "msra"
    }
    bias_filler {
      type: "constant"
      value: 0
    }
    engine: CUDNN
  }
}
layer {
  name: "bn22"
  type: "BatchNorm"
  bottom: "conv22"
  top: "conv22"
}
layer {
  name: "relu22"
  type: "ReLU"
  bottom: "conv22"
  top: "conv22"
  relu_param {
    negative_slope: 0.1
    engine: CUDNN
  }
}
layer {
  name: "conv23"
  type: "Convolution"
  bottom: "conv22"
  top: "conv23"
  param {
    name: "conv_W3"
    lr_mult: 0.3
  }
  param {
    name: "conv_b3"
    lr_mult: 0.1
    decay_mult: 0
  }
  convolution_param {
    num_output: 16
    pad: 1
    kernel_size: 3
    stride: 1
    weight_filler {
      type: "msra"
    }
    bias_filler {
      type: "constant"
      value: 0
    }
    engine: CUDNN
  }
}
layer {
  name: "bn23"
  type: "BatchNorm"
  bottom: "conv23"
  top: "conv23"
}
layer {
  name: "relu2-13"
  type: "ReLU"
  bottom: "conv23"
  top: "conv23"
  relu_param {
    negative_slope: 0.1
    engine: CUDNN
  }
}
layer {
  name: "deconv24"
  type: "Deconvolution"
  bottom: "conv23"
  top: "deconv24"
  param {
    lr_mult: 1
    decay_mult: 1
  }
  param {
    lr_mult: 0.1
    decay_mult: 0
  }
  convolution_param {
    num_output: 16
    pad: 6
    kernel_size: 14
    stride: 2
    weight_filler {
      type: "bilinear"
    }
    engine: CUDNN
  }
}
layer {
  name: "relu24"
  type: "ReLU"
  bottom: "deconv24"
  top: "deconv24"
  relu_param {
    negative_slope: 0.1
    engine: CUDNN
  }
}
layer {
  name: "conv25"
  type: "Convolution"
  bottom: "deconv24"
  top: "conv25"
  param {
    name: "conv_W5"
    lr_mult: 0.3
  }
  param {
    name: "conv_b5"
    lr_mult: 0.1
    decay_mult: 0
  }
  convolution_param {
    num_output: 48
    pad: 1
    kernel_size: 3
    stride: 1
    weight_filler {
      type: "msra"
    }
    bias_filler {
      type: "constant"
      value: 0
    }
    engine: CUDNN
  }
}
layer {
  name: "slice25"
  type: "Slice"
  bottom: "conv25"
  top: "conv25-a"
  top: "conv25-b"
  top: "conv25-c"
  slice_param {
    axis: 1
  }
}
layer {
  name: "maxout25"
  type: "Eltwise"
  bottom: "conv25-a"
  bottom: "conv25-b"
  bottom: "conv25-c"
  top: "maxout25"
  eltwise_param {
    operation: MAX
  }
}
layer {
  name: "bn25"
  type: "BatchNorm"
  bottom: "maxout25"
  top: "maxout25"
}
layer {
  name: "relu25"
  type: "ReLU"
  bottom: "maxout25"
  top: "maxout25"
  relu_param {
    negative_slope: 0.1
    engine: CUDNN
  }
}
layer {
  name: "conv26"
  type: "Convolution"
  bottom: "maxout25"
  top: "conv26"
  param {
    name: "conv_W6"
    lr_mult: 0.3
  }
  param {
    name: "conv_b6"
    lr_mult: 0.1
    decay_mult: 0
  }
  convolution_param {
    num_output: 48
    pad: 1
    kernel_size: 3
    stride: 1
    weight_filler {
      type: "msra"
    }
    bias_filler {
      type: "constant"
      value: 0
    }
    engine: CUDNN
  }
}
layer {
  name: "slice26"
  type: "Slice"
  bottom: "conv26"
  top: "conv26-a"
  top: "conv26-b"
  top: "conv26-c"
  slice_param {
    axis: 1
  }
}
layer {
  name: "maxout26"
  type: "Eltwise"
  bottom: "conv26-a"
  bottom: "conv26-b"
  bottom: "conv26-c"
  top: "maxout26"
  eltwise_param {
    operation: MAX
  }
}
layer {
  name: "bn26"
  type: "BatchNorm"
  bottom: "maxout26"
  top: "maxout26"
}
layer {
  name: "relu26"
  type: "ReLU"
  bottom: "maxout26"
  top: "maxout26"
  relu_param {
    negative_slope: 0.1
    engine: CUDNN
  }
}
layer {
  name: "conv27"
  type: "Convolution"
  bottom: "maxout26"
  top: "conv27"
  param {
    name: "conv_W7"
    lr_mult: 0.3
  }
  param {
    name: "conv_b7"
    lr_mult: 0.1
    decay_mult: 0
  }
  convolution_param {
    num_output: 1
    pad: 1
    kernel_size: 3
    stride: 1
    weight_filler {
      type: "msra"
    }
    bias_filler {
      type: "constant"
      value: 0
    }
    engine: CUDNN
  }
}
layer {
  name: "conv31"
  type: "Convolution"
  bottom: "low3"
  top: "conv31"
  param {
    name: "conv_W1"
    lr_mult: 0.3
  }
  param {
    name: "conv_b1"
    lr_mult: 0.1
    decay_mult: 0
  }
  convolution_param {
    num_output: 16
    pad: 1
    kernel_size: 3
    stride: 1
    weight_filler {
      type: "msra"
    }
    bias_filler {
      type: "constant"
      value: 0
    }
    engine: CUDNN
  }
}
layer {
  name: "relu31"
  type: "ReLU"
  bottom: "conv31"
  top: "conv31"
  relu_param {
    negative_slope: 0.1
    engine: CUDNN
  }
}
layer {
  name: "conv32"
  type: "Convolution"
  bottom: "conv31"
  top: "conv32"
  param {
    name: "conv_W2"
    lr_mult: 0.3
  }
  param {
    name: "conv_b2"
    lr_mult: 0.1
    decay_mult: 0
  }
  convolution_param {
    num_output: 16
    pad: 1
    kernel_size: 3
    stride: 1
    weight_filler {
      type: "msra"
    }
    bias_filler {
      type: "constant"
      value: 0
    }
    engine: CUDNN
  }
}
layer {
  name: "bn32"
  type: "BatchNorm"
  bottom: "conv32"
  top: "conv32"
}
layer {
  name: "relu32"
  type: "ReLU"
  bottom: "conv32"
  top: "conv32"
  relu_param {
    negative_slope: 0.1
    engine: CUDNN
  }
}
layer {
  name: "conv33"
  type: "Convolution"
  bottom: "conv32"
  top: "conv33"
  param {
    name: "conv_W3"
    lr_mult: 0.3
  }
  param {
    name: "conv_b3"
    lr_mult: 0.1
    decay_mult: 0
  }
  convolution_param {
    num_output: 16
    pad: 1
    kernel_size: 3
    stride: 1
    weight_filler {
      type: "msra"
    }
    bias_filler {
      type: "constant"
      value: 0
    }
    engine: CUDNN
  }
}
layer {
  name: "bn33"
  type: "BatchNorm"
  bottom: "conv33"
  top: "conv33"
}
layer {
  name: "relu3-13"
  type: "ReLU"
  bottom: "conv33"
  top: "conv33"
  relu_param {
    negative_slope: 0.1
    engine: CUDNN
  }
}
layer {
  name: "deconv34"
  type: "Deconvolution"
  bottom: "conv33"
  top: "deconv34"
  param {
    lr_mult: 1
    decay_mult: 1
  }
  param {
    lr_mult: 0.1
    decay_mult: 0
  }
  convolution_param {
    num_output: 16
    pad: 6
    kernel_size: 15
    stride: 3
    weight_filler {
      type: "bilinear"
    }
    engine: CUDNN
  }
}
layer {
  name: "relu34"
  type: "ReLU"
  bottom: "deconv34"
  top: "deconv34"
  relu_param {
    negative_slope: 0.1
    engine: CUDNN
  }
}
layer {
  name: "conv35"
  type: "Convolution"
  bottom: "deconv34"
  top: "conv35"
  param {
    name: "conv_W5"
    lr_mult: 0.3
  }
  param {
    name: "conv_b5"
    lr_mult: 0.1
    decay_mult: 0
  }
  convolution_param {
    num_output: 48
    pad: 1
    kernel_size: 3
    stride: 1
    weight_filler {
      type: "msra"
    }
    bias_filler {
      type: "constant"
      value: 0
    }
    engine: CUDNN
  }
}
layer {
  name: "slice35"
  type: "Slice"
  bottom: "conv35"
  top: "conv35-a"
  top: "conv35-b"
  top: "conv35-c"
  slice_param {
    axis: 1
  }
}
layer {
  name: "maxout35"
  type: "Eltwise"
  bottom: "conv35-a"
  bottom: "conv35-b"
  bottom: "conv35-c"
  top: "maxout35"
  eltwise_param {
    operation: MAX
  }
}
layer {
  name: "bn35"
  type: "BatchNorm"
  bottom: "maxout35"
  top: "maxout35"
}
layer {
  name: "relu35"
  type: "ReLU"
  bottom: "maxout35"
  top: "maxout35"
  relu_param {
    negative_slope: 0.1
    engine: CUDNN
  }
}
layer {
  name: "conv36"
  type: "Convolution"
  bottom: "maxout35"
  top: "conv36"
  param {
    name: "conv_W6"
    lr_mult: 0.3
  }
  param {
    name: "conv_b6"
    lr_mult: 0.1
    decay_mult: 0
  }
  convolution_param {
    num_output: 48
    pad: 1
    kernel_size: 3
    stride: 1
    weight_filler {
      type: "msra"
    }
    bias_filler {
      type: "constant"
      value: 0
    }
    engine: CUDNN
  }
}
layer {
  name: "slice36"
  type: "Slice"
  bottom: "conv36"
  top: "conv36-a"
  top: "conv36-b"
  top: "conv36-c"
  slice_param {
    axis: 1
  }
}
layer {
  name: "maxout36"
  type: "Eltwise"
  bottom: "conv36-a"
  bottom: "conv36-b"
  bottom: "conv36-c"
  top: "maxout36"
  eltwise_param {
    operation: MAX
  }
}
layer {
  name: "bn36"
  type: "BatchNorm"
  bottom: "maxout36"
  top: "maxout36"
}
layer {
  name: "relu36"
  type: "ReLU"
  bottom: "maxout36"
  top: "maxout36"
  relu_param {
    negative_slope: 0.1
    engine: CUDNN
  }
}
layer {
  name: "conv37"
  type: "Convolution"
  bottom: "maxout36"
  top: "conv37"
  param {
    name: "conv_W7"
    lr_mult: 0.3
  }
  param {
    name: "conv_b7"
    lr_mult: 0.1
    decay_mult: 0
  }
  convolution_param {
    num_output: 1
    pad: 1
    kernel_size: 3
    stride: 1
    weight_filler {
      type: "msra"
    }
    bias_filler {
      type: "constant"
      value: 0
    }
    engine: CUDNN
  }
}
layer {
  name: "conv41"
  type: "Convolution"
  bottom: "low4"
  top: "conv41"
  param {
    name: "conv_W1"
    lr_mult: 0.3
  }
  param {
    name: "conv_b1"
    lr_mult: 0.1
    decay_mult: 0
  }
  convolution_param {
    num_output: 16
    pad: 1
    kernel_size: 3
    stride: 1
    weight_filler {
      type: "msra"
    }
    bias_filler {
      type: "constant"
      value: 0
    }
    engine: CUDNN
  }
}
layer {
  name: "relu41"
  type: "ReLU"
  bottom: "conv41"
  top: "conv41"
  relu_param {
    negative_slope: 0.1
    engine: CUDNN
  }
}
layer {
  name: "conv42"
  type: "Convolution"
  bottom: "conv41"
  top: "conv42"
  param {
    name: "conv_W2"
    lr_mult: 0.3
  }
  param {
    name: "conv_b2"
    lr_mult: 0.1
    decay_mult: 0
  }
  convolution_param {
    num_output: 16
    pad: 1
    kernel_size: 3
    stride: 1
    weight_filler {
      type: "msra"
    }
    bias_filler {
      type: "constant"
      value: 0
    }
    engine: CUDNN
  }
}
layer {
  name: "bn42"
  type: "BatchNorm"
  bottom: "conv42"
  top: "conv42"
}
layer {
  name: "relu42"
  type: "ReLU"
  bottom: "conv42"
  top: "conv42"
  relu_param {
    negative_slope: 0.1
    engine: CUDNN
  }
}
layer {
  name: "conv43"
  type: "Convolution"
  bottom: "conv42"
  top: "conv43"
  param {
    name: "conv_W3"
    lr_mult: 0.3
  }
  param {
    name: "conv_b3"
    lr_mult: 0.1
    decay_mult: 0
  }
  convolution_param {
    num_output: 16
    pad: 1
    kernel_size: 3
    stride: 1
    weight_filler {
      type: "msra"
    }
    bias_filler {
      type: "constant"
      value: 0
    }
    engine: CUDNN
  }
}
layer {
  name: "bn43"
  type: "BatchNorm"
  bottom: "conv43"
  top: "conv43"
}
layer {
  name: "relu4-13"
  type: "ReLU"
  bottom: "conv43"
  top: "conv43"
  relu_param {
    negative_slope: 0.1
    engine: CUDNN
  }
}
layer {
  name: "deconv44"
  type: "Deconvolution"
  bottom: "conv43"
  top: "deconv44"
  param {
    lr_mult: 1
    decay_mult: 1
  }
  param {
    lr_mult: 0.1
    decay_mult: 0
  }
  convolution_param {
    num_output: 16
    pad: 6
    kernel_size: 16
    stride: 4
    weight_filler {
      type: "bilinear"
    }
    engine: CUDNN
  }
}
layer {
  name: "relu44"
  type: "ReLU"
  bottom: "deconv44"
  top: "deconv44"
  relu_param {
    negative_slope: 0.1
    engine: CUDNN
  }
}
layer {
  name: "conv45"
  type: "Convolution"
  bottom: "deconv44"
  top: "conv45"
  param {
    name: "conv_W5"
    lr_mult: 0.3
  }
  param {
    name: "conv_b5"
    lr_mult: 0.1
    decay_mult: 0
  }
  convolution_param {
    num_output: 48
    pad: 1
    kernel_size: 3
    stride: 1
    weight_filler {
      type: "msra"
    }
    bias_filler {
      type: "constant"
      value: 0
    }
    engine: CUDNN
  }
}
layer {
  name: "slice45"
  type: "Slice"
  bottom: "conv45"
  top: "conv45-a"
  top: "conv45-b"
  top: "conv45-c"
  slice_param {
    axis: 1
  }
}
layer {
  name: "maxout45"
  type: "Eltwise"
  bottom: "conv45-a"
  bottom: "conv45-b"
  bottom: "conv45-c"
  top: "maxout45"
  eltwise_param {
    operation: MAX
  }
}
layer {
  name: "bn45"
  type: "BatchNorm"
  bottom: "maxout45"
  top: "maxout45"
}
layer {
  name: "relu45"
  type: "ReLU"
  bottom: "maxout45"
  top: "maxout45"
  relu_param {
    negative_slope: 0.1
    engine: CUDNN
  }
}
layer {
  name: "conv46"
  type: "Convolution"
  bottom: "maxout45"
  top: "conv46"
  param {
    name: "conv_W6"
    lr_mult: 0.3
  }
  param {
    name: "conv_b6"
    lr_mult: 0.1
    decay_mult: 0
  }
  convolution_param {
    num_output: 48
    pad: 1
    kernel_size: 3
    stride: 1
    weight_filler {
      type: "msra"
    }
    bias_filler {
      type: "constant"
      value: 0
    }
    engine: CUDNN
  }
}
layer {
  name: "slice46"
  type: "Slice"
  bottom: "conv46"
  top: "conv46-a"
  top: "conv46-b"
  top: "conv46-c"
  slice_param {
    axis: 1
  }
}
layer {
  name: "maxout46"
  type: "Eltwise"
  bottom: "conv46-a"
  bottom: "conv46-b"
  bottom: "conv46-c"
  top: "maxout46"
  eltwise_param {
    operation: MAX
  }
}
layer {
  name: "bn46"
  type: "BatchNorm"
  bottom: "maxout46"
  top: "maxout46"
}
layer {
  name: "relu46"
  type: "ReLU"
  bottom: "maxout46"
  top: "maxout46"
  relu_param {
    negative_slope: 0.1
    engine: CUDNN
  }
}
layer {
  name: "conv47"
  type: "Convolution"
  bottom: "maxout46"
  top: "conv47"
  param {
    name: "conv_W7"
    lr_mult: 0.3
  }
  param {
    name: "conv_b7"
    lr_mult: 0.1
    decay_mult: 0
  }
  convolution_param {
    num_output: 1
    pad: 1
    kernel_size: 3
    stride: 1
    weight_filler {
      type: "msra"
    }
    bias_filler {
      type: "constant"
      value: 0
    }
    engine: CUDNN
  }
}
layer {
  name: "loss2"
  type: "EuclideanLoss"
  bottom: "conv27"
  bottom: "label"
  top: "loss2"
  loss_weight: 0.5
}
layer {
  name: "loss3"
  type: "EuclideanLoss"
  bottom: "conv37"
  bottom: "label"
  top: "loss3"
  loss_weight: 0.3
}
layer {
  name: "loss4"
  type: "EuclideanLoss"
  bottom: "conv47"
  bottom: "label"
  top: "loss4"
  loss_weight: 0.2
}
I0925 18:54:45.564164  4179 layer_factory.hpp:77] Creating layer low2
I0925 18:54:45.564182  4179 net.cpp:100] Creating Layer low2
I0925 18:54:45.564188  4179 net.cpp:408] low2 -> low2
I0925 18:54:45.564203  4179 hdf5_data_layer.cpp:79] Loading list of HDF5 filenames from: AESR/hdf5/tr_txt/low2_1.txt
I0925 18:54:45.564220  4179 hdf5_data_layer.cpp:93] Number of HDF5 files: 1
I0925 18:54:45.564726  4179 hdf5.cpp:32] Datatype class: H5T_FLOAT
I0925 18:54:45.570703  4179 net.cpp:150] Setting up low2
I0925 18:54:45.570727  4179 net.cpp:157] Top shape: 32 1 36 36 (41472)
I0925 18:54:45.570731  4179 net.cpp:165] Memory required for data: 165888
I0925 18:54:45.570737  4179 layer_factory.hpp:77] Creating layer low3
I0925 18:54:45.570746  4179 net.cpp:100] Creating Layer low3
I0925 18:54:45.570750  4179 net.cpp:408] low3 -> low3
I0925 18:54:45.570760  4179 hdf5_data_layer.cpp:79] Loading list of HDF5 filenames from: AESR/hdf5/tr_txt/low3_1.txt
I0925 18:54:45.570777  4179 hdf5_data_layer.cpp:93] Number of HDF5 files: 1
I0925 18:54:45.571297  4179 net.cpp:150] Setting up low3
I0925 18:54:45.571310  4179 net.cpp:157] Top shape: 32 1 24 24 (18432)
I0925 18:54:45.571312  4179 net.cpp:165] Memory required for data: 239616
I0925 18:54:45.571316  4179 layer_factory.hpp:77] Creating layer low4
I0925 18:54:45.571321  4179 net.cpp:100] Creating Layer low4
I0925 18:54:45.571323  4179 net.cpp:408] low4 -> low4
I0925 18:54:45.571328  4179 hdf5_data_layer.cpp:79] Loading list of HDF5 filenames from: AESR/hdf5/tr_txt/low4_1.txt
I0925 18:54:45.571338  4179 hdf5_data_layer.cpp:93] Number of HDF5 files: 1
I0925 18:54:45.571519  4179 net.cpp:150] Setting up low4
I0925 18:54:45.571528  4179 net.cpp:157] Top shape: 32 1 18 18 (10368)
I0925 18:54:45.571532  4179 net.cpp:165] Memory required for data: 281088
I0925 18:54:45.571533  4179 layer_factory.hpp:77] Creating layer label
I0925 18:54:45.571538  4179 net.cpp:100] Creating Layer label
I0925 18:54:45.571542  4179 net.cpp:408] label -> label
I0925 18:54:45.571547  4179 hdf5_data_layer.cpp:79] Loading list of HDF5 filenames from: AESR/hdf5/tr_txt/label_1.txt
I0925 18:54:45.571555  4179 hdf5_data_layer.cpp:93] Number of HDF5 files: 1
I0925 18:54:45.572155  4179 net.cpp:150] Setting up label
I0925 18:54:45.572165  4179 net.cpp:157] Top shape: 32 1 72 72 (165888)
I0925 18:54:45.572168  4179 net.cpp:165] Memory required for data: 944640
I0925 18:54:45.572170  4179 layer_factory.hpp:77] Creating layer label_label_0_split
I0925 18:54:45.572180  4179 net.cpp:100] Creating Layer label_label_0_split
I0925 18:54:45.572183  4179 net.cpp:434] label_label_0_split <- label
I0925 18:54:45.572192  4179 net.cpp:408] label_label_0_split -> label_label_0_split_0
I0925 18:54:45.572199  4179 net.cpp:408] label_label_0_split -> label_label_0_split_1
I0925 18:54:45.572204  4179 net.cpp:408] label_label_0_split -> label_label_0_split_2
I0925 18:54:45.572232  4179 net.cpp:150] Setting up label_label_0_split
I0925 18:54:45.572237  4179 net.cpp:157] Top shape: 32 1 72 72 (165888)
I0925 18:54:45.572249  4179 net.cpp:157] Top shape: 32 1 72 72 (165888)
I0925 18:54:45.572255  4179 net.cpp:157] Top shape: 32 1 72 72 (165888)
I0925 18:54:45.572259  4179 net.cpp:165] Memory required for data: 2935296
I0925 18:54:45.572263  4179 layer_factory.hpp:77] Creating layer conv21
I0925 18:54:45.572275  4179 net.cpp:100] Creating Layer conv21
I0925 18:54:45.572278  4179 net.cpp:434] conv21 <- low2
I0925 18:54:45.572283  4179 net.cpp:408] conv21 -> conv21
I0925 18:54:45.665231  4179 net.cpp:150] Setting up conv21
I0925 18:54:45.665256  4179 net.cpp:157] Top shape: 32 16 36 36 (663552)
I0925 18:54:45.665259  4179 net.cpp:165] Memory required for data: 5589504
I0925 18:54:45.665272  4179 layer_factory.hpp:77] Creating layer relu21
I0925 18:54:45.665280  4179 net.cpp:100] Creating Layer relu21
I0925 18:54:45.665283  4179 net.cpp:434] relu21 <- conv21
I0925 18:54:45.665287  4179 net.cpp:395] relu21 -> conv21 (in-place)
I0925 18:54:45.665398  4179 net.cpp:150] Setting up relu21
I0925 18:54:45.665405  4179 net.cpp:157] Top shape: 32 16 36 36 (663552)
I0925 18:54:45.665407  4179 net.cpp:165] Memory required for data: 8243712
I0925 18:54:45.665421  4179 layer_factory.hpp:77] Creating layer conv22
I0925 18:54:45.665431  4179 net.cpp:100] Creating Layer conv22
I0925 18:54:45.665434  4179 net.cpp:434] conv22 <- conv21
I0925 18:54:45.665438  4179 net.cpp:408] conv22 -> conv22
I0925 18:54:45.666046  4179 net.cpp:150] Setting up conv22
I0925 18:54:45.666056  4179 net.cpp:157] Top shape: 32 16 36 36 (663552)
I0925 18:54:45.666059  4179 net.cpp:165] Memory required for data: 10897920
I0925 18:54:45.666064  4179 layer_factory.hpp:77] Creating layer bn22
I0925 18:54:45.666072  4179 net.cpp:100] Creating Layer bn22
I0925 18:54:45.666076  4179 net.cpp:434] bn22 <- conv22
I0925 18:54:45.666080  4179 net.cpp:395] bn22 -> conv22 (in-place)
I0925 18:54:45.666188  4179 net.cpp:150] Setting up bn22
I0925 18:54:45.666193  4179 net.cpp:157] Top shape: 32 16 36 36 (663552)
I0925 18:54:45.666194  4179 net.cpp:165] Memory required for data: 13552128
I0925 18:54:45.666200  4179 layer_factory.hpp:77] Creating layer relu22
I0925 18:54:45.666204  4179 net.cpp:100] Creating Layer relu22
I0925 18:54:45.666208  4179 net.cpp:434] relu22 <- conv22
I0925 18:54:45.666210  4179 net.cpp:395] relu22 -> conv22 (in-place)
I0925 18:54:45.666381  4179 net.cpp:150] Setting up relu22
I0925 18:54:45.666389  4179 net.cpp:157] Top shape: 32 16 36 36 (663552)
I0925 18:54:45.666391  4179 net.cpp:165] Memory required for data: 16206336
I0925 18:54:45.666394  4179 layer_factory.hpp:77] Creating layer conv23
I0925 18:54:45.666400  4179 net.cpp:100] Creating Layer conv23
I0925 18:54:45.666404  4179 net.cpp:434] conv23 <- conv22
I0925 18:54:45.666406  4179 net.cpp:408] conv23 -> conv23
I0925 18:54:45.666934  4179 net.cpp:150] Setting up conv23
I0925 18:54:45.666944  4179 net.cpp:157] Top shape: 32 16 36 36 (663552)
I0925 18:54:45.666946  4179 net.cpp:165] Memory required for data: 18860544
I0925 18:54:45.666951  4179 layer_factory.hpp:77] Creating layer bn23
I0925 18:54:45.666955  4179 net.cpp:100] Creating Layer bn23
I0925 18:54:45.666959  4179 net.cpp:434] bn23 <- conv23
I0925 18:54:45.666961  4179 net.cpp:395] bn23 -> conv23 (in-place)
I0925 18:54:45.667064  4179 net.cpp:150] Setting up bn23
I0925 18:54:45.667069  4179 net.cpp:157] Top shape: 32 16 36 36 (663552)
I0925 18:54:45.667071  4179 net.cpp:165] Memory required for data: 21514752
I0925 18:54:45.667076  4179 layer_factory.hpp:77] Creating layer relu2-13
I0925 18:54:45.667080  4179 net.cpp:100] Creating Layer relu2-13
I0925 18:54:45.667083  4179 net.cpp:434] relu2-13 <- conv23
I0925 18:54:45.667085  4179 net.cpp:395] relu2-13 -> conv23 (in-place)
I0925 18:54:45.667255  4179 net.cpp:150] Setting up relu2-13
I0925 18:54:45.667263  4179 net.cpp:157] Top shape: 32 16 36 36 (663552)
I0925 18:54:45.667265  4179 net.cpp:165] Memory required for data: 24168960
I0925 18:54:45.667268  4179 layer_factory.hpp:77] Creating layer deconv24
I0925 18:54:45.667273  4179 net.cpp:100] Creating Layer deconv24
I0925 18:54:45.667275  4179 net.cpp:434] deconv24 <- conv23
I0925 18:54:45.667279  4179 net.cpp:408] deconv24 -> deconv24
I0925 18:54:45.669088  4179 net.cpp:150] Setting up deconv24
I0925 18:54:45.669097  4179 net.cpp:157] Top shape: 32 16 72 72 (2654208)
I0925 18:54:45.669100  4179 net.cpp:165] Memory required for data: 34785792
I0925 18:54:45.669104  4179 layer_factory.hpp:77] Creating layer relu24
I0925 18:54:45.669107  4179 net.cpp:100] Creating Layer relu24
I0925 18:54:45.669111  4179 net.cpp:434] relu24 <- deconv24
I0925 18:54:45.669113  4179 net.cpp:395] relu24 -> deconv24 (in-place)
I0925 18:54:45.669212  4179 net.cpp:150] Setting up relu24
I0925 18:54:45.669219  4179 net.cpp:157] Top shape: 32 16 72 72 (2654208)
I0925 18:54:45.669221  4179 net.cpp:165] Memory required for data: 45402624
I0925 18:54:45.669224  4179 layer_factory.hpp:77] Creating layer conv25
I0925 18:54:45.669229  4179 net.cpp:100] Creating Layer conv25
I0925 18:54:45.669231  4179 net.cpp:434] conv25 <- deconv24
I0925 18:54:45.669235  4179 net.cpp:408] conv25 -> conv25
I0925 18:54:45.670017  4179 net.cpp:150] Setting up conv25
I0925 18:54:45.670025  4179 net.cpp:157] Top shape: 32 48 72 72 (7962624)
I0925 18:54:45.670034  4179 net.cpp:165] Memory required for data: 77253120
I0925 18:54:45.670039  4179 layer_factory.hpp:77] Creating layer slice25
I0925 18:54:45.670045  4179 net.cpp:100] Creating Layer slice25
I0925 18:54:45.670048  4179 net.cpp:434] slice25 <- conv25
I0925 18:54:45.670052  4179 net.cpp:408] slice25 -> conv25-a
I0925 18:54:45.670058  4179 net.cpp:408] slice25 -> conv25-b
I0925 18:54:45.670063  4179 net.cpp:408] slice25 -> conv25-c
I0925 18:54:45.670091  4179 net.cpp:150] Setting up slice25
I0925 18:54:45.670096  4179 net.cpp:157] Top shape: 32 16 72 72 (2654208)
I0925 18:54:45.670099  4179 net.cpp:157] Top shape: 32 16 72 72 (2654208)
I0925 18:54:45.670101  4179 net.cpp:157] Top shape: 32 16 72 72 (2654208)
I0925 18:54:45.670104  4179 net.cpp:165] Memory required for data: 109103616
I0925 18:54:45.670105  4179 layer_factory.hpp:77] Creating layer maxout25
I0925 18:54:45.670112  4179 net.cpp:100] Creating Layer maxout25
I0925 18:54:45.670116  4179 net.cpp:434] maxout25 <- conv25-a
I0925 18:54:45.670120  4179 net.cpp:434] maxout25 <- conv25-b
I0925 18:54:45.670121  4179 net.cpp:434] maxout25 <- conv25-c
I0925 18:54:45.670125  4179 net.cpp:408] maxout25 -> maxout25
I0925 18:54:45.670148  4179 net.cpp:150] Setting up maxout25
I0925 18:54:45.670153  4179 net.cpp:157] Top shape: 32 16 72 72 (2654208)
I0925 18:54:45.670156  4179 net.cpp:165] Memory required for data: 119720448
I0925 18:54:45.670157  4179 layer_factory.hpp:77] Creating layer bn25
I0925 18:54:45.670161  4179 net.cpp:100] Creating Layer bn25
I0925 18:54:45.670162  4179 net.cpp:434] bn25 <- maxout25
I0925 18:54:45.670166  4179 net.cpp:395] bn25 -> maxout25 (in-place)
I0925 18:54:45.670267  4179 net.cpp:150] Setting up bn25
I0925 18:54:45.670272  4179 net.cpp:157] Top shape: 32 16 72 72 (2654208)
I0925 18:54:45.670274  4179 net.cpp:165] Memory required for data: 130337280
I0925 18:54:45.670281  4179 layer_factory.hpp:77] Creating layer relu25
I0925 18:54:45.670284  4179 net.cpp:100] Creating Layer relu25
I0925 18:54:45.670287  4179 net.cpp:434] relu25 <- maxout25
I0925 18:54:45.670290  4179 net.cpp:395] relu25 -> maxout25 (in-place)
I0925 18:54:45.670467  4179 net.cpp:150] Setting up relu25
I0925 18:54:45.670475  4179 net.cpp:157] Top shape: 32 16 72 72 (2654208)
I0925 18:54:45.670477  4179 net.cpp:165] Memory required for data: 140954112
I0925 18:54:45.670480  4179 layer_factory.hpp:77] Creating layer conv26
I0925 18:54:45.670486  4179 net.cpp:100] Creating Layer conv26
I0925 18:54:45.670488  4179 net.cpp:434] conv26 <- maxout25
I0925 18:54:45.670492  4179 net.cpp:408] conv26 -> conv26
I0925 18:54:45.671213  4179 net.cpp:150] Setting up conv26
I0925 18:54:45.671222  4179 net.cpp:157] Top shape: 32 48 72 72 (7962624)
I0925 18:54:45.671226  4179 net.cpp:165] Memory required for data: 172804608
I0925 18:54:45.671229  4179 layer_factory.hpp:77] Creating layer slice26
I0925 18:54:45.671234  4179 net.cpp:100] Creating Layer slice26
I0925 18:54:45.671236  4179 net.cpp:434] slice26 <- conv26
I0925 18:54:45.671239  4179 net.cpp:408] slice26 -> conv26-a
I0925 18:54:45.671246  4179 net.cpp:408] slice26 -> conv26-b
I0925 18:54:45.671249  4179 net.cpp:408] slice26 -> conv26-c
I0925 18:54:45.671281  4179 net.cpp:150] Setting up slice26
I0925 18:54:45.671285  4179 net.cpp:157] Top shape: 32 16 72 72 (2654208)
I0925 18:54:45.671288  4179 net.cpp:157] Top shape: 32 16 72 72 (2654208)
I0925 18:54:45.671290  4179 net.cpp:157] Top shape: 32 16 72 72 (2654208)
I0925 18:54:45.671293  4179 net.cpp:165] Memory required for data: 204655104
I0925 18:54:45.671294  4179 layer_factory.hpp:77] Creating layer maxout26
I0925 18:54:45.671298  4179 net.cpp:100] Creating Layer maxout26
I0925 18:54:45.671301  4179 net.cpp:434] maxout26 <- conv26-a
I0925 18:54:45.671304  4179 net.cpp:434] maxout26 <- conv26-b
I0925 18:54:45.671306  4179 net.cpp:434] maxout26 <- conv26-c
I0925 18:54:45.671309  4179 net.cpp:408] maxout26 -> maxout26
I0925 18:54:45.671330  4179 net.cpp:150] Setting up maxout26
I0925 18:54:45.671335  4179 net.cpp:157] Top shape: 32 16 72 72 (2654208)
I0925 18:54:45.671344  4179 net.cpp:165] Memory required for data: 215271936
I0925 18:54:45.671346  4179 layer_factory.hpp:77] Creating layer bn26
I0925 18:54:45.671350  4179 net.cpp:100] Creating Layer bn26
I0925 18:54:45.671351  4179 net.cpp:434] bn26 <- maxout26
I0925 18:54:45.671355  4179 net.cpp:395] bn26 -> maxout26 (in-place)
I0925 18:54:45.671463  4179 net.cpp:150] Setting up bn26
I0925 18:54:45.671468  4179 net.cpp:157] Top shape: 32 16 72 72 (2654208)
I0925 18:54:45.671471  4179 net.cpp:165] Memory required for data: 225888768
I0925 18:54:45.671475  4179 layer_factory.hpp:77] Creating layer relu26
I0925 18:54:45.671480  4179 net.cpp:100] Creating Layer relu26
I0925 18:54:45.671483  4179 net.cpp:434] relu26 <- maxout26
I0925 18:54:45.671486  4179 net.cpp:395] relu26 -> maxout26 (in-place)
I0925 18:54:45.671589  4179 net.cpp:150] Setting up relu26
I0925 18:54:45.671596  4179 net.cpp:157] Top shape: 32 16 72 72 (2654208)
I0925 18:54:45.671598  4179 net.cpp:165] Memory required for data: 236505600
I0925 18:54:45.671600  4179 layer_factory.hpp:77] Creating layer conv27
I0925 18:54:45.671607  4179 net.cpp:100] Creating Layer conv27
I0925 18:54:45.671610  4179 net.cpp:434] conv27 <- maxout26
I0925 18:54:45.671614  4179 net.cpp:408] conv27 -> conv27
I0925 18:54:45.672209  4179 net.cpp:150] Setting up conv27
I0925 18:54:45.672217  4179 net.cpp:157] Top shape: 32 1 72 72 (165888)
I0925 18:54:45.672220  4179 net.cpp:165] Memory required for data: 237169152
I0925 18:54:45.672224  4179 layer_factory.hpp:77] Creating layer conv31
I0925 18:54:45.672232  4179 net.cpp:100] Creating Layer conv31
I0925 18:54:45.672235  4179 net.cpp:434] conv31 <- low3
I0925 18:54:45.672242  4179 net.cpp:408] conv31 -> conv31
I0925 18:54:45.673112  4179 net.cpp:150] Setting up conv31
I0925 18:54:45.673122  4179 net.cpp:157] Top shape: 32 16 24 24 (294912)
I0925 18:54:45.673125  4179 net.cpp:165] Memory required for data: 238348800
I0925 18:54:45.673127  4179 net.cpp:493] Sharing parameters 'conv_W1' owned by layer 'conv21', param index 0
I0925 18:54:45.673130  4179 net.cpp:493] Sharing parameters 'conv_b1' owned by layer 'conv21', param index 1
I0925 18:54:45.673133  4179 layer_factory.hpp:77] Creating layer relu31
I0925 18:54:45.673137  4179 net.cpp:100] Creating Layer relu31
I0925 18:54:45.673140  4179 net.cpp:434] relu31 <- conv31
I0925 18:54:45.673143  4179 net.cpp:395] relu31 -> conv31 (in-place)
I0925 18:54:45.673254  4179 net.cpp:150] Setting up relu31
I0925 18:54:45.673259  4179 net.cpp:157] Top shape: 32 16 24 24 (294912)
I0925 18:54:45.673262  4179 net.cpp:165] Memory required for data: 239528448
I0925 18:54:45.673264  4179 layer_factory.hpp:77] Creating layer conv32
I0925 18:54:45.673271  4179 net.cpp:100] Creating Layer conv32
I0925 18:54:45.673274  4179 net.cpp:434] conv32 <- conv31
I0925 18:54:45.673279  4179 net.cpp:408] conv32 -> conv32
I0925 18:54:45.674012  4179 net.cpp:150] Setting up conv32
I0925 18:54:45.674021  4179 net.cpp:157] Top shape: 32 16 24 24 (294912)
I0925 18:54:45.674023  4179 net.cpp:165] Memory required for data: 240708096
I0925 18:54:45.674026  4179 net.cpp:493] Sharing parameters 'conv_W2' owned by layer 'conv22', param index 0
I0925 18:54:45.674029  4179 net.cpp:493] Sharing parameters 'conv_b2' owned by layer 'conv22', param index 1
I0925 18:54:45.674031  4179 layer_factory.hpp:77] Creating layer bn32
I0925 18:54:45.674036  4179 net.cpp:100] Creating Layer bn32
I0925 18:54:45.674038  4179 net.cpp:434] bn32 <- conv32
I0925 18:54:45.674041  4179 net.cpp:395] bn32 -> conv32 (in-place)
I0925 18:54:45.674156  4179 net.cpp:150] Setting up bn32
I0925 18:54:45.674161  4179 net.cpp:157] Top shape: 32 16 24 24 (294912)
I0925 18:54:45.674163  4179 net.cpp:165] Memory required for data: 241887744
I0925 18:54:45.674170  4179 layer_factory.hpp:77] Creating layer relu32
I0925 18:54:45.674175  4179 net.cpp:100] Creating Layer relu32
I0925 18:54:45.674177  4179 net.cpp:434] relu32 <- conv32
I0925 18:54:45.674180  4179 net.cpp:395] relu32 -> conv32 (in-place)
I0925 18:54:45.674357  4179 net.cpp:150] Setting up relu32
I0925 18:54:45.674372  4179 net.cpp:157] Top shape: 32 16 24 24 (294912)
I0925 18:54:45.674376  4179 net.cpp:165] Memory required for data: 243067392
I0925 18:54:45.674377  4179 layer_factory.hpp:77] Creating layer conv33
I0925 18:54:45.674386  4179 net.cpp:100] Creating Layer conv33
I0925 18:54:45.674388  4179 net.cpp:434] conv33 <- conv32
I0925 18:54:45.674394  4179 net.cpp:408] conv33 -> conv33
I0925 18:54:45.674975  4179 net.cpp:150] Setting up conv33
I0925 18:54:45.674984  4179 net.cpp:157] Top shape: 32 16 24 24 (294912)
I0925 18:54:45.674986  4179 net.cpp:165] Memory required for data: 244247040
I0925 18:54:45.674989  4179 net.cpp:493] Sharing parameters 'conv_W3' owned by layer 'conv23', param index 0
I0925 18:54:45.674993  4179 net.cpp:493] Sharing parameters 'conv_b3' owned by layer 'conv23', param index 1
I0925 18:54:45.674994  4179 layer_factory.hpp:77] Creating layer bn33
I0925 18:54:45.675000  4179 net.cpp:100] Creating Layer bn33
I0925 18:54:45.675004  4179 net.cpp:434] bn33 <- conv33
I0925 18:54:45.675007  4179 net.cpp:395] bn33 -> conv33 (in-place)
I0925 18:54:45.675122  4179 net.cpp:150] Setting up bn33
I0925 18:54:45.675127  4179 net.cpp:157] Top shape: 32 16 24 24 (294912)
I0925 18:54:45.675129  4179 net.cpp:165] Memory required for data: 245426688
I0925 18:54:45.675134  4179 layer_factory.hpp:77] Creating layer relu3-13
I0925 18:54:45.675137  4179 net.cpp:100] Creating Layer relu3-13
I0925 18:54:45.675140  4179 net.cpp:434] relu3-13 <- conv33
I0925 18:54:45.675143  4179 net.cpp:395] relu3-13 -> conv33 (in-place)
I0925 18:54:45.675320  4179 net.cpp:150] Setting up relu3-13
I0925 18:54:45.675328  4179 net.cpp:157] Top shape: 32 16 24 24 (294912)
I0925 18:54:45.675331  4179 net.cpp:165] Memory required for data: 246606336
I0925 18:54:45.675333  4179 layer_factory.hpp:77] Creating layer deconv34
I0925 18:54:45.675338  4179 net.cpp:100] Creating Layer deconv34
I0925 18:54:45.675341  4179 net.cpp:434] deconv34 <- conv33
I0925 18:54:45.675345  4179 net.cpp:408] deconv34 -> deconv34
I0925 18:54:45.677108  4179 net.cpp:150] Setting up deconv34
I0925 18:54:45.677114  4179 net.cpp:157] Top shape: 32 16 72 72 (2654208)
I0925 18:54:45.677115  4179 net.cpp:165] Memory required for data: 257223168
I0925 18:54:45.677120  4179 layer_factory.hpp:77] Creating layer relu34
I0925 18:54:45.677124  4179 net.cpp:100] Creating Layer relu34
I0925 18:54:45.677126  4179 net.cpp:434] relu34 <- deconv34
I0925 18:54:45.677130  4179 net.cpp:395] relu34 -> deconv34 (in-place)
I0925 18:54:45.677234  4179 net.cpp:150] Setting up relu34
I0925 18:54:45.677242  4179 net.cpp:157] Top shape: 32 16 72 72 (2654208)
I0925 18:54:45.677243  4179 net.cpp:165] Memory required for data: 267840000
I0925 18:54:45.677245  4179 layer_factory.hpp:77] Creating layer conv35
I0925 18:54:45.677253  4179 net.cpp:100] Creating Layer conv35
I0925 18:54:45.677255  4179 net.cpp:434] conv35 <- deconv34
I0925 18:54:45.677258  4179 net.cpp:408] conv35 -> conv35
I0925 18:54:45.678012  4179 net.cpp:150] Setting up conv35
I0925 18:54:45.678021  4179 net.cpp:157] Top shape: 32 48 72 72 (7962624)
I0925 18:54:45.678025  4179 net.cpp:165] Memory required for data: 299690496
I0925 18:54:45.678027  4179 net.cpp:493] Sharing parameters 'conv_W5' owned by layer 'conv25', param index 0
I0925 18:54:45.678030  4179 net.cpp:493] Sharing parameters 'conv_b5' owned by layer 'conv25', param index 1
I0925 18:54:45.678032  4179 layer_factory.hpp:77] Creating layer slice35
I0925 18:54:45.678036  4179 net.cpp:100] Creating Layer slice35
I0925 18:54:45.678038  4179 net.cpp:434] slice35 <- conv35
I0925 18:54:45.678042  4179 net.cpp:408] slice35 -> conv35-a
I0925 18:54:45.678048  4179 net.cpp:408] slice35 -> conv35-b
I0925 18:54:45.678052  4179 net.cpp:408] slice35 -> conv35-c
I0925 18:54:45.678086  4179 net.cpp:150] Setting up slice35
I0925 18:54:45.678089  4179 net.cpp:157] Top shape: 32 16 72 72 (2654208)
I0925 18:54:45.678092  4179 net.cpp:157] Top shape: 32 16 72 72 (2654208)
I0925 18:54:45.678094  4179 net.cpp:157] Top shape: 32 16 72 72 (2654208)
I0925 18:54:45.678097  4179 net.cpp:165] Memory required for data: 331540992
I0925 18:54:45.678104  4179 layer_factory.hpp:77] Creating layer maxout35
I0925 18:54:45.678110  4179 net.cpp:100] Creating Layer maxout35
I0925 18:54:45.678112  4179 net.cpp:434] maxout35 <- conv35-a
I0925 18:54:45.678115  4179 net.cpp:434] maxout35 <- conv35-b
I0925 18:54:45.678119  4179 net.cpp:434] maxout35 <- conv35-c
I0925 18:54:45.678122  4179 net.cpp:408] maxout35 -> maxout35
I0925 18:54:45.678145  4179 net.cpp:150] Setting up maxout35
I0925 18:54:45.678149  4179 net.cpp:157] Top shape: 32 16 72 72 (2654208)
I0925 18:54:45.678151  4179 net.cpp:165] Memory required for data: 342157824
I0925 18:54:45.678153  4179 layer_factory.hpp:77] Creating layer bn35
I0925 18:54:45.678158  4179 net.cpp:100] Creating Layer bn35
I0925 18:54:45.678159  4179 net.cpp:434] bn35 <- maxout35
I0925 18:54:45.678163  4179 net.cpp:395] bn35 -> maxout35 (in-place)
I0925 18:54:45.678277  4179 net.cpp:150] Setting up bn35
I0925 18:54:45.678282  4179 net.cpp:157] Top shape: 32 16 72 72 (2654208)
I0925 18:54:45.678284  4179 net.cpp:165] Memory required for data: 352774656
I0925 18:54:45.678289  4179 layer_factory.hpp:77] Creating layer relu35
I0925 18:54:45.678292  4179 net.cpp:100] Creating Layer relu35
I0925 18:54:45.678295  4179 net.cpp:434] relu35 <- maxout35
I0925 18:54:45.678298  4179 net.cpp:395] relu35 -> maxout35 (in-place)
I0925 18:54:45.678478  4179 net.cpp:150] Setting up relu35
I0925 18:54:45.678485  4179 net.cpp:157] Top shape: 32 16 72 72 (2654208)
I0925 18:54:45.678488  4179 net.cpp:165] Memory required for data: 363391488
I0925 18:54:45.678490  4179 layer_factory.hpp:77] Creating layer conv36
I0925 18:54:45.678498  4179 net.cpp:100] Creating Layer conv36
I0925 18:54:45.678499  4179 net.cpp:434] conv36 <- maxout35
I0925 18:54:45.678504  4179 net.cpp:408] conv36 -> conv36
I0925 18:54:45.679270  4179 net.cpp:150] Setting up conv36
I0925 18:54:45.679280  4179 net.cpp:157] Top shape: 32 48 72 72 (7962624)
I0925 18:54:45.679281  4179 net.cpp:165] Memory required for data: 395241984
I0925 18:54:45.679285  4179 net.cpp:493] Sharing parameters 'conv_W6' owned by layer 'conv26', param index 0
I0925 18:54:45.679287  4179 net.cpp:493] Sharing parameters 'conv_b6' owned by layer 'conv26', param index 1
I0925 18:54:45.679289  4179 layer_factory.hpp:77] Creating layer slice36
I0925 18:54:45.679294  4179 net.cpp:100] Creating Layer slice36
I0925 18:54:45.679297  4179 net.cpp:434] slice36 <- conv36
I0925 18:54:45.679301  4179 net.cpp:408] slice36 -> conv36-a
I0925 18:54:45.679307  4179 net.cpp:408] slice36 -> conv36-b
I0925 18:54:45.679312  4179 net.cpp:408] slice36 -> conv36-c
I0925 18:54:45.679344  4179 net.cpp:150] Setting up slice36
I0925 18:54:45.679348  4179 net.cpp:157] Top shape: 32 16 72 72 (2654208)
I0925 18:54:45.679352  4179 net.cpp:157] Top shape: 32 16 72 72 (2654208)
I0925 18:54:45.679354  4179 net.cpp:157] Top shape: 32 16 72 72 (2654208)
I0925 18:54:45.679358  4179 net.cpp:165] Memory required for data: 427092480
I0925 18:54:45.679359  4179 layer_factory.hpp:77] Creating layer maxout36
I0925 18:54:45.679364  4179 net.cpp:100] Creating Layer maxout36
I0925 18:54:45.679368  4179 net.cpp:434] maxout36 <- conv36-a
I0925 18:54:45.679370  4179 net.cpp:434] maxout36 <- conv36-b
I0925 18:54:45.679373  4179 net.cpp:434] maxout36 <- conv36-c
I0925 18:54:45.679378  4179 net.cpp:408] maxout36 -> maxout36
I0925 18:54:45.679399  4179 net.cpp:150] Setting up maxout36
I0925 18:54:45.679404  4179 net.cpp:157] Top shape: 32 16 72 72 (2654208)
I0925 18:54:45.679406  4179 net.cpp:165] Memory required for data: 437709312
I0925 18:54:45.679409  4179 layer_factory.hpp:77] Creating layer bn36
I0925 18:54:45.679411  4179 net.cpp:100] Creating Layer bn36
I0925 18:54:45.679414  4179 net.cpp:434] bn36 <- maxout36
I0925 18:54:45.679419  4179 net.cpp:395] bn36 -> maxout36 (in-place)
I0925 18:54:45.679534  4179 net.cpp:150] Setting up bn36
I0925 18:54:45.679539  4179 net.cpp:157] Top shape: 32 16 72 72 (2654208)
I0925 18:54:45.679543  4179 net.cpp:165] Memory required for data: 448326144
I0925 18:54:45.679548  4179 layer_factory.hpp:77] Creating layer relu36
I0925 18:54:45.679556  4179 net.cpp:100] Creating Layer relu36
I0925 18:54:45.679560  4179 net.cpp:434] relu36 <- maxout36
I0925 18:54:45.679564  4179 net.cpp:395] relu36 -> maxout36 (in-place)
I0925 18:54:45.679672  4179 net.cpp:150] Setting up relu36
I0925 18:54:45.679679  4179 net.cpp:157] Top shape: 32 16 72 72 (2654208)
I0925 18:54:45.679682  4179 net.cpp:165] Memory required for data: 458942976
I0925 18:54:45.679684  4179 layer_factory.hpp:77] Creating layer conv37
I0925 18:54:45.679692  4179 net.cpp:100] Creating Layer conv37
I0925 18:54:45.679695  4179 net.cpp:434] conv37 <- maxout36
I0925 18:54:45.679699  4179 net.cpp:408] conv37 -> conv37
I0925 18:54:45.680316  4179 net.cpp:150] Setting up conv37
I0925 18:54:45.680325  4179 net.cpp:157] Top shape: 32 1 72 72 (165888)
I0925 18:54:45.680330  4179 net.cpp:165] Memory required for data: 459606528
I0925 18:54:45.680332  4179 net.cpp:493] Sharing parameters 'conv_W7' owned by layer 'conv27', param index 0
I0925 18:54:45.680336  4179 net.cpp:493] Sharing parameters 'conv_b7' owned by layer 'conv27', param index 1
I0925 18:54:45.680340  4179 layer_factory.hpp:77] Creating layer conv41
I0925 18:54:45.680346  4179 net.cpp:100] Creating Layer conv41
I0925 18:54:45.680351  4179 net.cpp:434] conv41 <- low4
I0925 18:54:45.680354  4179 net.cpp:408] conv41 -> conv41
I0925 18:54:45.680966  4179 net.cpp:150] Setting up conv41
I0925 18:54:45.680975  4179 net.cpp:157] Top shape: 32 16 18 18 (165888)
I0925 18:54:45.680979  4179 net.cpp:165] Memory required for data: 460270080
I0925 18:54:45.680981  4179 net.cpp:493] Sharing parameters 'conv_W1' owned by layer 'conv21', param index 0
I0925 18:54:45.680985  4179 net.cpp:493] Sharing parameters 'conv_b1' owned by layer 'conv21', param index 1
I0925 18:54:45.680989  4179 layer_factory.hpp:77] Creating layer relu41
I0925 18:54:45.680992  4179 net.cpp:100] Creating Layer relu41
I0925 18:54:45.680995  4179 net.cpp:434] relu41 <- conv41
I0925 18:54:45.680999  4179 net.cpp:395] relu41 -> conv41 (in-place)
I0925 18:54:45.681102  4179 net.cpp:150] Setting up relu41
I0925 18:54:45.681109  4179 net.cpp:157] Top shape: 32 16 18 18 (165888)
I0925 18:54:45.681113  4179 net.cpp:165] Memory required for data: 460933632
I0925 18:54:45.681114  4179 layer_factory.hpp:77] Creating layer conv42
I0925 18:54:45.681121  4179 net.cpp:100] Creating Layer conv42
I0925 18:54:45.681124  4179 net.cpp:434] conv42 <- conv41
I0925 18:54:45.681129  4179 net.cpp:408] conv42 -> conv42
I0925 18:54:45.681793  4179 net.cpp:150] Setting up conv42
I0925 18:54:45.681802  4179 net.cpp:157] Top shape: 32 16 18 18 (165888)
I0925 18:54:45.681805  4179 net.cpp:165] Memory required for data: 461597184
I0925 18:54:45.681808  4179 net.cpp:493] Sharing parameters 'conv_W2' owned by layer 'conv22', param index 0
I0925 18:54:45.681812  4179 net.cpp:493] Sharing parameters 'conv_b2' owned by layer 'conv22', param index 1
I0925 18:54:45.681814  4179 layer_factory.hpp:77] Creating layer bn42
I0925 18:54:45.681819  4179 net.cpp:100] Creating Layer bn42
I0925 18:54:45.681823  4179 net.cpp:434] bn42 <- conv42
I0925 18:54:45.681826  4179 net.cpp:395] bn42 -> conv42 (in-place)
I0925 18:54:45.681947  4179 net.cpp:150] Setting up bn42
I0925 18:54:45.681952  4179 net.cpp:157] Top shape: 32 16 18 18 (165888)
I0925 18:54:45.681955  4179 net.cpp:165] Memory required for data: 462260736
I0925 18:54:45.681960  4179 layer_factory.hpp:77] Creating layer relu42
I0925 18:54:45.681965  4179 net.cpp:100] Creating Layer relu42
I0925 18:54:45.681968  4179 net.cpp:434] relu42 <- conv42
I0925 18:54:45.681972  4179 net.cpp:395] relu42 -> conv42 (in-place)
I0925 18:54:45.682150  4179 net.cpp:150] Setting up relu42
I0925 18:54:45.682158  4179 net.cpp:157] Top shape: 32 16 18 18 (165888)
I0925 18:54:45.682162  4179 net.cpp:165] Memory required for data: 462924288
I0925 18:54:45.682164  4179 layer_factory.hpp:77] Creating layer conv43
I0925 18:54:45.682173  4179 net.cpp:100] Creating Layer conv43
I0925 18:54:45.682176  4179 net.cpp:434] conv43 <- conv42
I0925 18:54:45.682180  4179 net.cpp:408] conv43 -> conv43
I0925 18:54:45.682795  4179 net.cpp:150] Setting up conv43
I0925 18:54:45.682803  4179 net.cpp:157] Top shape: 32 16 18 18 (165888)
I0925 18:54:45.682806  4179 net.cpp:165] Memory required for data: 463587840
I0925 18:54:45.682809  4179 net.cpp:493] Sharing parameters 'conv_W3' owned by layer 'conv23', param index 0
I0925 18:54:45.682812  4179 net.cpp:493] Sharing parameters 'conv_b3' owned by layer 'conv23', param index 1
I0925 18:54:45.682816  4179 layer_factory.hpp:77] Creating layer bn43
I0925 18:54:45.682821  4179 net.cpp:100] Creating Layer bn43
I0925 18:54:45.682823  4179 net.cpp:434] bn43 <- conv43
I0925 18:54:45.682826  4179 net.cpp:395] bn43 -> conv43 (in-place)
I0925 18:54:45.682947  4179 net.cpp:150] Setting up bn43
I0925 18:54:45.682952  4179 net.cpp:157] Top shape: 32 16 18 18 (165888)
I0925 18:54:45.682955  4179 net.cpp:165] Memory required for data: 464251392
I0925 18:54:45.682960  4179 layer_factory.hpp:77] Creating layer relu4-13
I0925 18:54:45.682965  4179 net.cpp:100] Creating Layer relu4-13
I0925 18:54:45.682968  4179 net.cpp:434] relu4-13 <- conv43
I0925 18:54:45.682971  4179 net.cpp:395] relu4-13 -> conv43 (in-place)
I0925 18:54:45.683151  4179 net.cpp:150] Setting up relu4-13
I0925 18:54:45.683158  4179 net.cpp:157] Top shape: 32 16 18 18 (165888)
I0925 18:54:45.683161  4179 net.cpp:165] Memory required for data: 464914944
I0925 18:54:45.683164  4179 layer_factory.hpp:77] Creating layer deconv44
I0925 18:54:45.683171  4179 net.cpp:100] Creating Layer deconv44
I0925 18:54:45.683173  4179 net.cpp:434] deconv44 <- conv43
I0925 18:54:45.683177  4179 net.cpp:408] deconv44 -> deconv44
I0925 18:54:45.685183  4179 net.cpp:150] Setting up deconv44
I0925 18:54:45.685190  4179 net.cpp:157] Top shape: 32 16 72 72 (2654208)
I0925 18:54:45.685194  4179 net.cpp:165] Memory required for data: 475531776
I0925 18:54:45.685202  4179 layer_factory.hpp:77] Creating layer relu44
I0925 18:54:45.685207  4179 net.cpp:100] Creating Layer relu44
I0925 18:54:45.685210  4179 net.cpp:434] relu44 <- deconv44
I0925 18:54:45.685214  4179 net.cpp:395] relu44 -> deconv44 (in-place)
I0925 18:54:45.685396  4179 net.cpp:150] Setting up relu44
I0925 18:54:45.685405  4179 net.cpp:157] Top shape: 32 16 72 72 (2654208)
I0925 18:54:45.685407  4179 net.cpp:165] Memory required for data: 486148608
I0925 18:54:45.685410  4179 layer_factory.hpp:77] Creating layer conv45
I0925 18:54:45.685418  4179 net.cpp:100] Creating Layer conv45
I0925 18:54:45.685422  4179 net.cpp:434] conv45 <- deconv44
I0925 18:54:45.685426  4179 net.cpp:408] conv45 -> conv45
I0925 18:54:45.686203  4179 net.cpp:150] Setting up conv45
I0925 18:54:45.686213  4179 net.cpp:157] Top shape: 32 48 72 72 (7962624)
I0925 18:54:45.686215  4179 net.cpp:165] Memory required for data: 517999104
I0925 18:54:45.686218  4179 net.cpp:493] Sharing parameters 'conv_W5' owned by layer 'conv25', param index 0
I0925 18:54:45.686221  4179 net.cpp:493] Sharing parameters 'conv_b5' owned by layer 'conv25', param index 1
I0925 18:54:45.686225  4179 layer_factory.hpp:77] Creating layer slice45
I0925 18:54:45.686229  4179 net.cpp:100] Creating Layer slice45
I0925 18:54:45.686233  4179 net.cpp:434] slice45 <- conv45
I0925 18:54:45.686236  4179 net.cpp:408] slice45 -> conv45-a
I0925 18:54:45.686242  4179 net.cpp:408] slice45 -> conv45-b
I0925 18:54:45.686247  4179 net.cpp:408] slice45 -> conv45-c
I0925 18:54:45.686280  4179 net.cpp:150] Setting up slice45
I0925 18:54:45.686285  4179 net.cpp:157] Top shape: 32 16 72 72 (2654208)
I0925 18:54:45.686288  4179 net.cpp:157] Top shape: 32 16 72 72 (2654208)
I0925 18:54:45.686291  4179 net.cpp:157] Top shape: 32 16 72 72 (2654208)
I0925 18:54:45.686293  4179 net.cpp:165] Memory required for data: 549849600
I0925 18:54:45.686296  4179 layer_factory.hpp:77] Creating layer maxout45
I0925 18:54:45.686300  4179 net.cpp:100] Creating Layer maxout45
I0925 18:54:45.686303  4179 net.cpp:434] maxout45 <- conv45-a
I0925 18:54:45.686306  4179 net.cpp:434] maxout45 <- conv45-b
I0925 18:54:45.686309  4179 net.cpp:434] maxout45 <- conv45-c
I0925 18:54:45.686319  4179 net.cpp:408] maxout45 -> maxout45
I0925 18:54:45.686344  4179 net.cpp:150] Setting up maxout45
I0925 18:54:45.686348  4179 net.cpp:157] Top shape: 32 16 72 72 (2654208)
I0925 18:54:45.686352  4179 net.cpp:165] Memory required for data: 560466432
I0925 18:54:45.686353  4179 layer_factory.hpp:77] Creating layer bn45
I0925 18:54:45.686357  4179 net.cpp:100] Creating Layer bn45
I0925 18:54:45.686359  4179 net.cpp:434] bn45 <- maxout45
I0925 18:54:45.686363  4179 net.cpp:395] bn45 -> maxout45 (in-place)
I0925 18:54:45.686480  4179 net.cpp:150] Setting up bn45
I0925 18:54:45.686486  4179 net.cpp:157] Top shape: 32 16 72 72 (2654208)
I0925 18:54:45.686487  4179 net.cpp:165] Memory required for data: 571083264
I0925 18:54:45.686492  4179 layer_factory.hpp:77] Creating layer relu45
I0925 18:54:45.686497  4179 net.cpp:100] Creating Layer relu45
I0925 18:54:45.686501  4179 net.cpp:434] relu45 <- maxout45
I0925 18:54:45.686506  4179 net.cpp:395] relu45 -> maxout45 (in-place)
I0925 18:54:45.686689  4179 net.cpp:150] Setting up relu45
I0925 18:54:45.686697  4179 net.cpp:157] Top shape: 32 16 72 72 (2654208)
I0925 18:54:45.686700  4179 net.cpp:165] Memory required for data: 581700096
I0925 18:54:45.686702  4179 layer_factory.hpp:77] Creating layer conv46
I0925 18:54:45.686710  4179 net.cpp:100] Creating Layer conv46
I0925 18:54:45.686713  4179 net.cpp:434] conv46 <- maxout45
I0925 18:54:45.686718  4179 net.cpp:408] conv46 -> conv46
I0925 18:54:45.687496  4179 net.cpp:150] Setting up conv46
I0925 18:54:45.687505  4179 net.cpp:157] Top shape: 32 48 72 72 (7962624)
I0925 18:54:45.687508  4179 net.cpp:165] Memory required for data: 613550592
I0925 18:54:45.687511  4179 net.cpp:493] Sharing parameters 'conv_W6' owned by layer 'conv26', param index 0
I0925 18:54:45.687515  4179 net.cpp:493] Sharing parameters 'conv_b6' owned by layer 'conv26', param index 1
I0925 18:54:45.687518  4179 layer_factory.hpp:77] Creating layer slice46
I0925 18:54:45.687522  4179 net.cpp:100] Creating Layer slice46
I0925 18:54:45.687525  4179 net.cpp:434] slice46 <- conv46
I0925 18:54:45.687530  4179 net.cpp:408] slice46 -> conv46-a
I0925 18:54:45.687536  4179 net.cpp:408] slice46 -> conv46-b
I0925 18:54:45.687541  4179 net.cpp:408] slice46 -> conv46-c
I0925 18:54:45.687572  4179 net.cpp:150] Setting up slice46
I0925 18:54:45.687577  4179 net.cpp:157] Top shape: 32 16 72 72 (2654208)
I0925 18:54:45.687580  4179 net.cpp:157] Top shape: 32 16 72 72 (2654208)
I0925 18:54:45.687583  4179 net.cpp:157] Top shape: 32 16 72 72 (2654208)
I0925 18:54:45.687587  4179 net.cpp:165] Memory required for data: 645401088
I0925 18:54:45.687589  4179 layer_factory.hpp:77] Creating layer maxout46
I0925 18:54:45.687597  4179 net.cpp:100] Creating Layer maxout46
I0925 18:54:45.687599  4179 net.cpp:434] maxout46 <- conv46-a
I0925 18:54:45.687602  4179 net.cpp:434] maxout46 <- conv46-b
I0925 18:54:45.687605  4179 net.cpp:434] maxout46 <- conv46-c
I0925 18:54:45.687608  4179 net.cpp:408] maxout46 -> maxout46
I0925 18:54:45.687631  4179 net.cpp:150] Setting up maxout46
I0925 18:54:45.687636  4179 net.cpp:157] Top shape: 32 16 72 72 (2654208)
I0925 18:54:45.687638  4179 net.cpp:165] Memory required for data: 656017920
I0925 18:54:45.687641  4179 layer_factory.hpp:77] Creating layer bn46
I0925 18:54:45.687645  4179 net.cpp:100] Creating Layer bn46
I0925 18:54:45.687649  4179 net.cpp:434] bn46 <- maxout46
I0925 18:54:45.687651  4179 net.cpp:395] bn46 -> maxout46 (in-place)
I0925 18:54:45.687767  4179 net.cpp:150] Setting up bn46
I0925 18:54:45.687772  4179 net.cpp:157] Top shape: 32 16 72 72 (2654208)
I0925 18:54:45.687775  4179 net.cpp:165] Memory required for data: 666634752
I0925 18:54:45.687779  4179 layer_factory.hpp:77] Creating layer relu46
I0925 18:54:45.687784  4179 net.cpp:100] Creating Layer relu46
I0925 18:54:45.687788  4179 net.cpp:434] relu46 <- maxout46
I0925 18:54:45.687791  4179 net.cpp:395] relu46 -> maxout46 (in-place)
I0925 18:54:45.687898  4179 net.cpp:150] Setting up relu46
I0925 18:54:45.687906  4179 net.cpp:157] Top shape: 32 16 72 72 (2654208)
I0925 18:54:45.687913  4179 net.cpp:165] Memory required for data: 677251584
I0925 18:54:45.687916  4179 layer_factory.hpp:77] Creating layer conv47
I0925 18:54:45.687923  4179 net.cpp:100] Creating Layer conv47
I0925 18:54:45.687927  4179 net.cpp:434] conv47 <- maxout46
I0925 18:54:45.687932  4179 net.cpp:408] conv47 -> conv47
I0925 18:54:45.688566  4179 net.cpp:150] Setting up conv47
I0925 18:54:45.688576  4179 net.cpp:157] Top shape: 32 1 72 72 (165888)
I0925 18:54:45.688580  4179 net.cpp:165] Memory required for data: 677915136
I0925 18:54:45.688582  4179 net.cpp:493] Sharing parameters 'conv_W7' owned by layer 'conv27', param index 0
I0925 18:54:45.688585  4179 net.cpp:493] Sharing parameters 'conv_b7' owned by layer 'conv27', param index 1
I0925 18:54:45.688588  4179 layer_factory.hpp:77] Creating layer loss2
I0925 18:54:45.688596  4179 net.cpp:100] Creating Layer loss2
…
